…
WARNING:tensorflow:From C:\Users\kenji\miniconda3\Lib\site-packages\keras\src\utils\tf_utils.py:492: The name tf.ragged.RaggedTensorValue is deprecated. Please use tf.compat.v1.ragged.RaggedTensorValue instead.
WARNING:tensorflow:From C:\Users\kenji\miniconda3\Lib\site-packages\keras\src\engine\base_layer_utils.py:384: The name tf.executing_eagerly_outside_functions is deprecated. Please use tf.compat.v1.executing_eagerly_outside_functions instead.
Model: "sequential"
_________________________________________________________________
 Layer (type)                Output Shape              Param #
=================================================================
 embedding (Embedding)       (None, 50, 100)           2016000
 masking (Masking)           (None, 50, 100)           0
 lstm (LSTM)                 (None, 32)                17024
 dense (Dense)               (None, 32)                1056
 dropout (Dropout)           (None, 32)                0
 dense_1 (Dense)             (None, 1)                 33
=================================================================
Total params: 2034113 (7.76 MB)
Trainable params: 18113 (70.75 KB)
Non-trainable params: 2016000 (7.69 MB)
_________________________________________________________________
None
Epoch 1/6


256/256 [==============================] - 9s 27ms/step - loss: 0.6034 - accuracy: 0.6440 - val_loss: 0.5326 - val_accuracy: 0.7378
Epoch 2/6


…
