Model: "sequential"
_________________________________________________________________
 Layer (type)                Output Shape              Param #
=================================================================
 embedding (Embedding)       (None, 50, 100)           2016000
 gru (GRU)                   (None, 50, 128)           88320
 dropout (Dropout)           (None, 50, 128)           0
 flatten (Flatten)           (None, 6400)              0
 dense (Dense)               (None, 128)               819328
 dropout_1 (Dropout)         (None, 128)               0
 dense_1 (Dense)             (None, 1)                 129
=================================================================
Total params: 2923777 (11.15 MB)
Trainable params: 907777 (3.46 MB)
Non-trainable params: 2016000 (7.69 MB)
_________________________________________________________________
None
Epoch 1/6


128/128 [==============================] - 8s 54ms/step - loss: 0.5354 - acc: 0.7128 - val_loss: 0.4481 - val_acc: 0.7958
Epoch 2/6


128/128 [==============================] - 7s 53ms/step - loss: 0.4254 - acc: 0.7968 - val_loss: 0.4139 - val_acc: 0.7981
…
