Model: "sequential"
_________________________________________________________________
 Layer (type)                Output Shape              Param #
=================================================================
 embedding (Embedding)       (None, 50, 200)           4032000
 gru (GRU)                   (None, 50, 128)           126720
 dropout (Dropout)           (None, 50, 128)           0
 flatten (Flatten)           (None, 6400)              0
 dense (Dense)               (None, 128)               819328
 dropout_1 (Dropout)         (None, 128)               0
 dense_1 (Dense)             (None, 1)                 129
=================================================================
Total params: 4978177 (18.99 MB)
Trainable params: 946177 (3.61 MB)
Non-trainable params: 4032000 (15.38 MB)
_________________________________________________________________
None
Epoch 1/6



128/128 [==============================] - 10s 66ms/step - loss: 0.5279 - acc: 0.7189 - val_loss: 0.4444 - val_acc: 0.7935
Epoch 2/6



128/128 [==============================] - 9s 68ms/step - loss: 0.4064 - acc: 0.8112 - val_loss: 0.4110 - val_acc: 0.8109
…
