…
nda3\Lib\site-packages\keras\src\backend.py:873: The name tf.get_default_graph is deprecated. Please use tf.compat.v1.get_default_graph instead.
WARNING:tensorflow:From C:\Users\kenji\miniconda3\Lib\site-packages\keras\src\utils\tf_utils.py:492: The name tf.ragged.RaggedTensorValue is deprecated. Please use tf.compat.v1.ragged.RaggedTensorValue instead.
Model: "sequential"
_________________________________________________________________
 Layer (type)                Output Shape              Param #
=================================================================
 embedding (Embedding)       (None, 50, 100)           2016000
 masking (Masking)           (None, 50, 100)           0
 bidirectional (Bidirection  (None, 64)                34048
 al)
 dense (Dense)               (None, 32)                2080
 dropout (Dropout)           (None, 32)                0
 dense_1 (Dense)             (None, 1)                 33
=================================================================
Total params: 2052161 (7.83 MB)
Trainable params: 36161 (141.25 KB)
Non-trainable params: 2016000 (7.69 MB)
_________________________________________________________________
None
Epoch 1/6
WARNING:tensorflow:From C:\Users\kenji\miniconda3\Lib\site-packages\keras\src\engine\base_layer_utils.py:384: The name tf.executing_eagerly_outside_functions is deprecated. Please use tf.compat.v1.executing_eagerly_outside_functions instead.
…
