Model: "sequential"
_________________________________________________________________
 Layer (type)                Output Shape              Param #
=================================================================
 embedding (Embedding)       (None, 50, 100)           2016000
 masking (Masking)           (None, 50, 100)           0
 bidirectional (Bidirection  (None, 64)                34048
 al)
 dense (Dense)               (None, 32)                2080
 dropout (Dropout)           (None, 32)                0
 dense_1 (Dense)             (None, 1)                 33
=================================================================
Total params: 2052161 (7.83 MB)
Trainable params: 36161 (141.25 KB)
Non-trainable params: 2016000 (7.69 MB)
_________________________________________________________________
None
Epoch 1/6



128/128 [==============================] - 13s 68ms/step - loss: 0.6055 - accuracy: 0.6456 - val_loss: 0.5537 - val_accuracy: 0.6845
Epoch 2/6
…
