Model: "sequential"
_________________________________________________________________
 Layer (type)                Output Shape              Param #
=================================================================
 embedding (Embedding)       (None, 50, 100)           2016000
 masking (Masking)           (None, 50, 100)           0
 bidirectional (Bidirection  (None, 128)               84480
 al)
 dense (Dense)               (None, 64)                8256
 dropout (Dropout)           (None, 64)                0
 dense_1 (Dense)             (None, 1)                 65
 activation (Activation)     (None, 1)                 0
=================================================================
Total params: 2108801 (8.04 MB)
Trainable params: 92801 (362.50 KB)
Non-trainable params: 2016000 (7.69 MB)
_________________________________________________________________
None
Epoch 1/6


128/128 [==============================] - 11s 50ms/step - loss: 0.5582 - accuracy: 0.6941 - val_loss: 0.4775 - val_accuracy: 0.7622
Epoch 2/6
…
