…
WARNING:tensorflow:From C:\Users\kenji\miniconda3\Lib\site-packages\keras\src\utils\tf_utils.py:492: The name tf.ragged.RaggedTensorValue is deprecated. Please use tf.compat.v1.ragged.RaggedTensorValue instead.
WARNING:tensorflow:From C:\Users\kenji\miniconda3\Lib\site-packages\keras\src\engine\base_layer_utils.py:384: The name tf.executing_eagerly_outside_functions is deprecated. Please use tf.compat.v1.executing_eagerly_outside_functions instead.
Model: "sequential"
_________________________________________________________________
 Layer (type)                Output Shape              Param #
=================================================================
 embedding (Embedding)       (None, 50, 100)           2016000
 gru (GRU)                   (None, 64)                31872
 flatten (Flatten)           (None, 64)                0
 dense (Dense)               (None, 64)                4160
 dropout (Dropout)           (None, 64)                0
 dense_1 (Dense)             (None, 1)                 65
=================================================================
Total params: 2052097 (7.83 MB)
Trainable params: 36097 (141.00 KB)
Non-trainable params: 2016000 (7.69 MB)
_________________________________________________________________
None
Epoch 1/6

64/64 [==============================] - 5s 52ms/step - loss: 0.6932 - accuracy: 0.4997 - val_loss: 0.6928 - val_accuracy: 0.5209
Epoch 2/6
64/64 [==============================] - 3s 43ms/step - loss: 0.6931 - accuracy: 0.5039 - val_loss: 0.6928 - val_accuracy: 0.5209
…
