Model: "sequential"
_________________________________________________________________
 Layer (type)                Output Shape              Param #
=================================================================
 embedding (Embedding)       (None, 50, 200)           4032000
 masking (Masking)           (None, 50, 200)           0
 bidirectional (Bidirection  (None, 128)               135680
 al)
 dense (Dense)               (None, 64)                8256
 dropout (Dropout)           (None, 64)                0
 dense_1 (Dense)             (None, 1)                 65
 activation (Activation)     (None, 1)                 0
=================================================================
Total params: 4176001 (15.93 MB)
Trainable params: 144001 (562.50 KB)
Non-trainable params: 4032000 (15.38 MB)
_________________________________________________________________
None
Epoch 1/6



128/128 [==============================] - 13s 67ms/step - loss: 0.5501 - accuracy: 0.7011 - val_loss: 0.4619 - val_accuracy: 0.7773
Epoch 2/6
…
