Model: "sequential"
_________________________________________________________________
 Layer (type)                Output Shape              Param #
=================================================================
 embedding (Embedding)       (None, 50, 100)           2016000
 gru (GRU)                   (None, 50, 64)            31872
 gru_1 (GRU)                 (None, 64)                24960
 flatten (Flatten)           (None, 64)                0
 dense (Dense)               (None, 64)                4160
 dropout (Dropout)           (None, 64)                0
 dense_1 (Dense)             (None, 1)                 65
=================================================================
Total params: 2077057 (7.92 MB)
Trainable params: 61057 (238.50 KB)
Non-trainable params: 2016000 (7.69 MB)
_________________________________________________________________
None
Epoch 1/6


64/64 [==============================] - 9s 94ms/step - loss: 0.6932 - accuracy: 0.5028 - val_loss: 0.6931 - val_accuracy: 0.5209
Epoch 2/6


64/64 [==============================] - 5s 84ms/step - loss: 0.6932 - accuracy: 0.4988 - val_loss: 0.6930 - val_accuracy: 0.5209
…
