Model: "sequential"
_________________________________________________________________
 Layer (type)                Output Shape              Param #
=================================================================
 embedding (Embedding)       (None, 50, 100)           2016000
 masking (Masking)           (None, 50, 100)           0
 lstm (LSTM)                 (None, 64)                42240
 dense (Dense)               (None, 64)                4160
 dropout (Dropout)           (None, 64)                0
 dense_1 (Dense)             (None, 1)                 65
 activation (Activation)     (None, 1)                 0
=================================================================
Total params: 2062465 (7.87 MB)
Trainable params: 46465 (181.50 KB)
Non-trainable params: 2016000 (7.69 MB)
_________________________________________________________________
None
Epoch 1/6



128/128 [==============================] - 10s 57ms/step - loss: 0.5865 - accuracy: 0.6667 - val_loss: 0.5104 - val_accuracy: 0.7401
Epoch 2/6
…
